app/src/main/assets/BackgroundRemoverStatic2WxH_128x176.tflite (tflite, 369744 bytes, 45 tensors)

model/c1/depthwise f4 [1, 3, 3, 18]
00000000: de6e 30c0 4d9a 65bf dc32 5dbe a8de 543e
00000010: 9aa3 953f b95e bdbd 5ef6 11be 162f d3bd
00000020: 5cd7 56be 6758 15bf 15be fabd 270f 053c
00000030: f5bb e23e 62d8 d5bd de02 40bf bd16 2c3c
00000040: eb95 793b 8335 ebbe 1850 f43f 1cdf 25bf
00000050: addd c23f 6e9d f33d ef38 89bf 52b9 febd
00000060: 0c2b c6be eab3 9ebc 71f3 58be 24f2 c03e
00000070: 769d 39be 3a35 6f3b 0c4e bebe c238 07be
00000080: 9a37 4a3f 9db8 143d 8f87 be39 823b a43f
00000090: 8050 f53d 3834 edbd 883e c13f 09a8 f7be
000000a0: a78b fabf 77c0 1dbd 02e1 6bbe e3f4 533d
000000b0: 500b 1f3f 9bf0 f03e 1493 b6be 5166 193d
000000c0: c452 d0be 9c23 a83d 4d0f e6bc 74c6 313e
000000d0: ab73 cd3c 1300 cfbe ca78 623d f4ec 33bf
000000e0: b989 84bf 2b69 e13e 8724 3a3e 20dc b1bd
000000f0: 7697 df3d 1f7f e93f aec8 fbbe 0614 bd3d
00000100: 8a00 e0bd 7c6f b33e abd6 b1be 470e 99be
00000110: 18e5 863e 2161 3fbd bd0b 80bd 55b2 26c0
00000120: 1838 e33f 89f9 093e d139 c1bf 03b5 f23e
00000130: 4fbc 1640 d627 b63c 017b dcbe 2ea5 d63d
00000140: f4b6 8cbf 0b15 b73e 6a1a 0bbe e663 b13e
00000150: 77ba 0fbf 7104 bfbe 6c84 8240 1ea1 af3f
00000160: b41a fabc 4eab 293f b153 c9bf 49f5 393f
00000170: 9ab5 57bf 978f bd3e ffba 8dbf c684 713d
00000180: db21 dfbe c1e9 d33d b48b b8bc c709 6b3f
00000190: d85d b83e cdf3 2ebc 3829 3fbe 147f 05be
000001a0: e877 0c3f 47e6 2bbe 8158 b4bc ad6f f53f
000001b0: 78c7 493f 5fba 843f 31c3 173f 48f6 e03e
000001c0: 0294 a8be b23b 35bd 2c04 1c3e b979 17bd
000001d0: a40b 87bd 29c2 0f3f 015f 583d 6a24 b43e
000001e0: e193 febe a6b9 c73d 2663 12bf c169 2d3e
000001f0: 2f29 74ba c605 43bf dbdc 79bf 76af 523f
00000200: abd8 183f 5fb8 a13e 75f7 453f e7ce 703f
00000210: c10a 893e 4dc9 753d 9011 77bf 47fd 183d
00000220: af31 3e40 59a8 dd3d bcf6 00bf aaa2 cabe
00000230: 6992 583f 3ae6 7bbd bab4 bf3f db92 94bf
00000240: ec2c 573e 5024 3d3e 5ad1 d3be 420c aa3e
00000250: 7baf 7b3f 56dd 993c 8644 d6be 6069 a63d
00000260: f8fb 03bf f9a2 023f 6570 e83e d001 84b9
00000270: 87da a53e 768c 9c3d 6d42 043e 0928 7cbc
00000280: a62d 7cbd ee87 cf3f
-2.7567668 -0.8968857 -0.21601433 0.20788062 1.1690552 -0.092465825 -0.14254138 -0.10311715
-0.2098059 -0.58338016 -0.122432865 0.008121288 0.44284025 -0.10441662 -0.75004375 0.010503468
0.0038083743 -0.45939264 1.9086943 -0.6479356 1.52239 0.11895262 -1.07205 -0.12437691
-0.38704717 -0.0193729 -0.21186616 0.3768474 -0.18126473 0.0036500231 -0.3716892 -0.13205245
0.7899109 0.036308873 0.00036340623 1.283066 0.11978245 -0.115822256 1.5097208 -0.48370388
-1.9573869 -0.038513627 -0.23035052 0.051747214 0.62126637 0.47058567 -0.35659087 0.037451092
-0.40688145 0.08209917 -0.028083468 0.1736086 0.025079569 -0.40429744 0.055290975 -0.70283437
-1.035453 0.4402555 0.18177997 -0.08684564 0.10917561 1.8241919 -0.49176544 0.09232335
-0.10937603 0.35045993 -0.3473409 -0.29893705 0.2634666 -0.04672349 -0.06252239 -2.6046345
1.7751493 0.13474096 -1.5095769 0.47403726 2.3552434 0.022235792 -0.43062595 0.10480724
-1.0993333 0.35758242 -0.13584295 0.3464653 -0.561439 -0.37308076 4.078665 1.3721044
-0.030530311 0.66277015 -1.5728666 0.726399 -0.84261477 0.37023613 -1.1072692 0.058964513
-0.43580517 0.103473194 -0.022527553 0.91811794 0.36009097 -0.010678244 -0.18668067 -0.13036758
0.5487046 -0.16787063 -0.022014858 1.9174706 0.7881999 1.0369376 0.59282213 0.43937898
-0.3292542 -0.044246383 0.15235966 -0.03698132 -0.06594017 0.5615564 0.052824978 0.35184032
-0.49722198 0.097522065 -0.5718254 0.16934873 -0.0009313998 -0.76180685 -0.97602624 0.8229898
0.5970561 0.31585976 0.77330714 0.9406571 0.26766017 0.06000643 -0.96511173 0.03735092
2.9717824 0.108231254 -0.50376487 -0.39577228 0.84598404 -0.061498858 1.4977028 -1.1607317
0.2101323 0.18470883 -0.4137066 0.33212477 0.98314637 0.018782299 -0.41849154 0.081255674
-0.5155635 0.51029927 0.4539825 -0.00025178352 0.32393286 0.07643978 0.12915964 -0.0153904045
-0.06156697 1.6213357

model/depthwise_conv2d_1/depthwise f4 [1, 3, 3, 36]
00000000: e412 2c3e d61f 74bc 722c 053f 947a f33e
00000010: 8f21 8c3e cfe7 3a3e 4334 f1be 0da2 31bf
00000020: 1f9d dc3e 891f e6be c18d b9be 24aa 65bf
00000030: 8ba9 a1bd 08ed 49bf 38ce ce3e 0c66 8f3f
00000040: b924 903e c1b6 ac3e 6803 033f cc34 e4bf
00000050: 118a 55be 6003 d2be 4b92 53bf eeff a7be
00000060: 0f59 1b3f 8d0f 48bf 27e0 48bf 9e3f 6cbe
00000070: cb3f 413e 2873 a7bc 1481 613f a773 5ebf
00000080: f9ec e2bf 47ff 9ebd bf85 08c0 6003 f13b
00000090: c402 f5bd c420 e93d 05c5 aa3f dd86 bdbe
000000a0: 71cc a13e 1204 0b3e 7dfc 84be b17b 1cbf
000000b0: 49bb 993e 1186 08c0 5cc0 ec3e 21f9 77bf
000000c0: c03f 20bf 25dd 03bf 1ea4 c43e dce0 123f
000000d0: cd0b 253f 6172 3bbf 1cff b83e dcf1 39be
000000e0: 4c8c 4d3f 6717 0c3f 381a 023f 1017 203f
000000f0: b120 f6be 801d d13e 1550 153e 9224 06bf
00000100: 31a6 133f 53fa c23d c50e e13e 3e89 8cbf
00000110: f06e f53f f890 babf 75e9 1abf b2d0 443d
00000120: d8d2 e23e ca06 853e 3e35 523f 06e5 183e
00000130: 4828 7abe 8ff9 073e 8a47 473c 07d7 6a3f
00000140: 623f 25be 8aee 87bf ebcf 473f 757b febe
00000150: ae3f 85be f342 5e3f 01bd 673f 0cc3 bb3d
00000160: c3e5 a33c 23a9 96be de01 fbbe a51f 9bbe
00000170: dab2 9f3e 56d9 4a3f 2ca0 9d3d bf61 023f
00000180: b6e7 b1bf 21e6 a43e fc80 3b3f 64a8 ff3e
00000190: a28d 1740 ddcd b1bf 5a4b 6e3f 8c35 3abf
000001a0: 61e9 2cbe fbad ff3e d2d3 883d c675 453e
000001b0: ad96 03bc 3c00 13bd 5e6d dd3d 90db 44bf
000001c0: 0274 02bf 9170 333e cbaa 973d a0ab 8dbe
000001d0: c99d 233f e07f 1e3f 2c13 c7be 3497 3ebf
000001e0: 76fc 2fbe 9af2 e0be bf33 11bf 0360 ab3e
000001f0: cc56 063d 48ed 91be 4f7f dbbd 6a33 6d3e
00000200: 0e9c 973f 6cd5 bcbf b7e9 14bf 95d5 c0be
00000210: 773d a23f 7504 bebd f4e8 00bf 3bb6 e5be
00000220: 175e 4ebf fbc0 35bf db01 5ebe 1630 70bc
00000230: 8538 30c0 0a28 f03e c887 09c0 3ba9 ab3c
00000240: b920 16c0 7559 3bbd 9308 eebe c5bb 91bf
00000250: fe46 14bf 35a0 c93c c190 1ebf fa19 ecbe
00000260: 004a 6abe 2cfd 4fbe b545 d8be f5d4 c6be
00000270: b357 19bf 728f 17bf ad73 94be dcc6 8cbe
00000280: c9e3 053f 2a26 98bf d692 9c3e 7814 723f
00000290: 3d68 f33e 70fd 7c3e d0ff 543f 175d 613f
000002a0: 68b2 29be 04fb 913f ff20 5dbf f951 41bf
000002b0: 1429 21c0 864b e83e 0ba9 67bf fb37 5fbd
000002c0: 613b 3b40 0f17 673d b42e 3f3e 01bb bbbe
000002d0: b4d0 a33e f435 373f eabb 29bf edc8 0d3e
000002e0: 74c9 283f b55b c4be e4e9 0bbf 7019 913f
000002f0: 904f bdbf 0b88 07bf 2ce4 033f a9a5 323f
00000300: 9fb7 54be 8326 d33d 1b35 2b3f 733e 2ebf
00000310: 8199 103f b7e0 80be 395d aabf 5d28 293f
00000320: d591 bdbe a37c 8c3f 46b0 783e f957 aa3e
00000330: 97bd abbf ad3c 50be 9555 5f3e 19e3 b73e
00000340: 3f4a 10c0 04db b9bf 55e1 54be bb68 a23e
00000350: 9a97 9b3e 6648 603e 48fc c73e ce97 823f
00000360: 5b3b 823e 0251 343d ece2 18bf 6203 ce3e
00000370: 4556 00bf db78 6e3f 6fdd 663f 932f 46be
00000380: 6e20 acbe 97bd 99be 99c6 ddbe 2553 0a3f
00000390: c774 913e 50fe 2bbb 9474 00bf cfe0 93be
000003a0: dc68 57bf 60b8 1f3f f0b7 c5be 25be 233f
000003b0: 481d 083f 07c1 95bf 75a0 b8be e4d5 4ebe
000003c0: 3484 cb3f 538b 6e3f d8ad 823f db8a bebe
000003d0: 8807 933f d004 47be a04e 21bf 5a17 453f
000003e0: 1789 37bf e82b bbbe 1605 89bf 8267 debd
000003f0: 068b 44c0 9131 c43d 7a53 d1bd 6125 fb3e
0.16804081 -0.014900168 0.52020943 0.47554457 0.27369353 0.1825249 -0.47110185 -0.69387895
0.43088624 -0.44945934 -0.36240962 -0.8971274 -0.07893666 -0.78877306 0.40391707 1.1203017
0.28153017 0.3373318 0.5117707 -1.7828612 -0.2085345 -0.410182 -0.826451 -0.32812446
0.6068277 -0.7814873 -0.7846703 -0.23071143 0.18871991 -0.020440653 0.8808758 -0.8689522
-1.7728568 -0.07763534 -2.1331632 0.0073551387 -0.11963418 0.11383203 1.3341376 -0.37016955
0.3160129 0.13575771 -0.25973883 -0.6112624 0.300257 -2.1331828 0.4624051 -0.96864516
-0.62597275 -0.51509315 0.3840646 0.5737436 0.6447113 -0.73221403 0.36132133 -0.18158668
0.802922 0.5472321 0.50821257 0.6253519 -0.48071817 0.4084282 0.1458133 -0.5239955
0.5767546 0.09520402 0.4395658 -1.0979383 1.917448 -1.4575491 -0.6051248 0.04805059
0.44301486 0.25981742 0.8211249 0.14931116 -0.24429429 0.13278793 0.012163052 0.91734356
-0.1613746 -1.0619671 0.7805163 -0.49703565 -0.26025146 0.86820906 0.9052277 0.091680616
0.02000702 -0.29425916 -0.49024862 -0.3029758 0.3119114 0.7923788 0.07696566 0.509304
-1.3898838 0.32206824 0.7324369 0.4993316 2.3680196 -1.389095 0.9308373 -0.72737956
-0.16885902 0.49937424 0.066810265 0.19283208 -0.008031529 -0.035888895 0.10811876 -0.76897526
-0.50958264 0.1752341 0.07405623 -0.27670002 0.63912636 0.6191387 -0.38881814 -0.7444947
-0.1718615 -0.4393509 -0.56719583 0.3347169 0.03279762 -0.28501344 -0.107176416 0.23164144
1.1844499 -1.4752631 -0.5816912 -0.3766295 1.2675008 -0.09278194 -0.5035546 -0.44865593
-0.8061232 -0.7099759 -0.21680395 -0.014659902 -2.7534497 0.46905547 -2.1489124 0.020954719
-2.3457472 -0.04573961 -0.46490917 -1.1385428 -0.57920825 0.024612525 -0.61939627 -0.4611357
-0.22879791 -0.20311421 -0.42240682 -0.38834348 -0.59899443 -0.59203255 -0.28994504 -0.27495468
0.523007 -1.1886647 0.30580777 0.9456248 0.47540465 0.24706054 0.8320284 0.8803267
-0.16571963 1.1404729 -0.86378473 -0.75515705 -2.5181322 0.4537012 -0.90492314 -0.054496747
2.9254992 0.056418475 0.1867016 -0.3666611 0.31995165 0.715667 -0.6630236 0.13846178
0.65932393 -0.38351217 -0.54653764 1.1335888 -1.4789906 -0.5294196 0.5152004 0.6978403
-0.20773171 0.1031008 0.6687791 -0.6806404 0.5648423 -0.25171444 -1.3309699 0.66077214
-0.37025324 1.0975536 0.24285993 0.33270243 -1.3417233 -0.20335646 0.2180999 0.3591545
-2.2545316 -1.4519963 -0.20789082 0.31720528 0.303891 0.21902618 0.39059663 1.0202577
0.2543591 0.044022568 -0.59721255 0.40236956 -0.50131637 0.9315316 0.9018163 -0.19354086
-0.33618492 -0.30027458 -0.4331558 0.5403312 0.28409407 -0.0026244111 -0.50177884 -0.28882453
-0.8414438 0.6239071 -0.38616896 0.6396201 0.5316968 -1.1699532 -0.3605992 -0.2019878
1.589972 0.9318134 1.0209303 -0.37215313 1.1486673 -0.1943543 -0.630106 0.76988757
-0.7169356 -0.36556935 -1.0704677 -0.10859586 -3.0709853 0.095797665 -0.10221 0.49051955

model/c2/depthwise f4 [1, 3, 3, 36]
00000000: dde5 fc3c 30b4 4bbe 11b3 bd3b a29f af3e
00000010: a41b a8bf 957a f4bd c4bd 993f 3577 a2bd
00000020: 56da 2dbf e393 bebd 97a3 e0be 2a6b 283e
00000030: 1a50 0f3e 8108 0ebf 1ba6 7c3e f1d1 5d3d
00000040: 8e87 43be a20d 4e3e 7869 5c3f 8783 38be
00000050: 736c adbc ba8e d2bf 9019 d9be 894c 28bf
00000060: 1c7c 74be 22fb 9bbe 2ecd 7a3e 9416 42be
00000070: 240d dabe a530 c0be dc0d 8abd 9120 1dbe
00000080: 9a7f aabc 774c 61be 5838 0c3f 7ebd 153e
00000090: 459d 113e bd08 9c3e 1e2a a33f 14ae 49bd
000000a0: a44c 653e 0ca1 803f 1dbf 5a3f ab41 343f
000000b0: 6067 363d e663 fc3e 5b8c 68be d46f edbd
000000c0: 21bc dfbd 4e1c c2be 0b5b ac3e aa9c 7c3d
000000d0: 1f95 26be 71ab 5dbe a174 4dbe 43d2 32be
000000e0: c632 b2bf 5ff9 03bf a5f3 69bf 7398 abbe
000000f0: f2b3 2cbe 0f32 843e 851a 863e bd41 7f3e
00000100: e102 2fbe 9c9c c4be 0438 e6be 2d15 8bbe
00000110: c885 31be d2e3 16bf e614 e03e 991b 1fbe
00000120: 21e6 43bf 7506 fd3c cfbb bfbe 75e1 173f
00000130: 1ec8 82be 16fd 49be 76ac 063e 8a16 773c
00000140: 27df 513e 259e 05bd 2351 a83c e8b9 5a3e
00000150: 1db6 cbbd 6f4f 763d 855c 95be e68d 143f
00000160: 0326 2ebe 685f 81be a08f 93bd a7e3 38bd
00000170: c470 7bbe a642 7e3d 4999 11be aea0 293e
00000180: 1ce6 ffbe 7175 243e 7131 9ebe 0e3a 28be
00000190: ff36 e93d 1653 d1bd 3db3 90be 5b07 ac3d
000001a0: d6d5 26bd d5b4 f03d 438e d03e b4e3 20bf
000001b0: 8e87 57bd 1f4f 433f 24be 8d3e cdfa 083e
000001c0: cd7b 553e 886d 32bc c05b 16bf d687 78bf
000001d0: 755b 0c3e a983 2bbf edf7 c13d 5ce1 803e
000001e0: d824 52bc eaec 36be 0bd4 2f3f 6c02 e9bc
000001f0: 3c7b ddbd 8397 abbe 7cf5 243f 0f22 f5be
00000200: c983 d7bf f3a5 48bf 27f6 e1bd 291d 12bf
00000210: e7c4 1bbe 6611 03bd b4a0 843d 7c4d 59be
00000220: 26a7 0bbf de4e e93e 3507 71bf 8ba7 92be
00000230: 3645 6d3c 54b8 34be 9e16 2ebd 0a5e 30be
00000240: 520a b1be 6dca 79bd 91aa d9bd 13d0 be3e
00000250: d8c4 13bb cf79 11be 7a26 c93e ee31 4c3f
00000260: e01e 44bf b785 b0be 9ba3 4ebf f0ea 273f
00000270: b719 2dbd e6cd 19bf 5fa5 ca3b ddb9 3d3f
00000280: 86a9 afbe 45b8 b6be bc85 ce3e 5c0d 00bc
00000290: 5782 f7be 0606 8bbf 7d78 4bbf 7fdf 0abf
000002a0: 21b9 163b fd58 db3e 84fc 593f 7d61 a53e
000002b0: 9194 88c0 cbef 23c0 94d4 97bf bbea 0fbd
000002c0: e12f b3bf 6e7d 1d3f 8e15 fb3d b893 9d3f
000002d0: de06 0fbe e697 c6bd 614c 8bbe 0829 f6bd
000002e0: e5c0 06bf e0bd 113e b7dc fb3e 49ea 12be
000002f0: 0587 b13e ca75 063f e391 11be 1189 923d
00000300: ba03 84bd 62ab b5be ecb7 d93e ac0b b2bc
00000310: de78 b73d 8842 d3bc f53d 8a3e dd3b e5be
00000320: d6d8 3f3c cf75 14bd d59c e93e 9700 183f
00000330: 4eed 933d 8bdb 5d3c e312 373e bb1b a93e
00000340: d7e3 90be ac92 03be e9a1 bd3e ed61 03bf
00000350: 42ec 8cbc 9858 a1be becb d23d 4bec 80be
00000360: 4a46 cbbe 4970 b43d 8392 0e3e f3ee c0bf
00000370: 2ee2 313d bb94 e93d 9f75 20bf 72c0 9bbd
00000380: fcec ad3d 0c9f 88bd 61f5 b43e 171d 603f
00000390: 2bc8 a8be 30c2 a13e d70e ebbe ecc4 af3e
000003a0: 8ac8 20bf 41b7 87be 318d d3be 3977 f6bd
000003b0: 5bcf 3fbf a93f dd3e 79e3 71bd 6fc9 10bf
000003c0: dab6 bcbe 6298 613f af20 c2bf 3a3a ee3e
000003d0: cce4 a5be e16f 163f 9f2c 29be 72af 18bf
000003e0: 5e9d 01be f7dc 14bf 3c89 073e f6db 563c
000003f0: 4f23 50be c2a8 103d 804d 32bb 4ec5 8dbf
0.030871326 -0.19892955 0.0057891686 0.34301478 -1.3133435 -0.11937443 1.2011037 -0.07932893
-0.6791128 -0.09305551 -0.4387481 0.1644713 0.139954 -0.55481726 0.24672739 0.054155294
-0.19094679 0.20122388 0.8609843 -0.18018924 -0.021169877 -1.6449807 -0.42402315 -0.65741783
-0.23875469 -0.30465037 0.24492332 -0.18953925 -0.4258815 -0.37537113 -0.06740925 -0.15344454
-0.020812798 -0.22001825 0.54773474 0.14623067 0.1422015 0.30475417 1.2747228 -0.04923828
0.22392517 1.0049148 0.85447866 0.704127 0.04453218 0.49294966 -0.22709791 -0.11593595
-0.109245546 -0.3791222 0.3366321 0.061672844 -0.16267823 -0.21647431 -0.20064022 -0.17463021
-1.3921745 -0.51552385 -0.913874 -0.33514747 -0.16865519 0.25819442 0.26192108 0.24927421
-0.17090942 -0.38400733 -0.44964612 -0.27164593 -0.1733619 -0.58941376 0.43765944 -0.15537871
-0.76523024 0.030886868 -0.37447974 0.59328395 -0.25543302 -0.19725451 0.13151726 0.015081057
0.20495282 -0.03262152 0.020546502 0.2135998 -0.09946845 0.060134348 -0.2917215 0.5802902
-0.17006688 -0.25268102 -0.07205129 -0.04513898 -0.24554735 0.06207528 -0.1421863 0.165652
-0.49980247 0.16060425 -0.30897096 -0.16428396 0.11387443 -0.102209255 -0.28261748 0.083998404
-0.040731274 0.11753241 0.40733537 -0.6284745 -0.05261951 0.76292604 0.27684128 0.13376923
0.20848008 -0.010890372 -0.5873375 -0.9708227 0.13706763 -0.6699777 0.09471116 0.25171936
-0.012826167 -0.17863813 0.68682927 -0.028443538 -0.10814521 -0.33514032 0.6443708 -0.47877547
-1.6837093 -0.7837822 -0.11033278 -0.57075745 -0.15211831 -0.031999014 0.06475964 -0.21220964
-0.54551923 0.45567983 -0.9415162 -0.2864345 0.014481833 -0.1764844 -0.04250204 -0.17223373
-0.34578186 -0.060984064 -0.10628236 0.37268123 -0.0022547748 -0.14206623 0.39287168 0.79763687
-0.7660961 -0.34477016 -0.8071839 0.6559286 -0.04226085 -0.600798 0.0061842646 0.7411173
-0.34309024 -0.35687461 0.40336406 -0.007815685 -0.4834163 -1.0861213 -0.79480726 -0.5424728
0.002299853 0.4284133 0.85150933 0.3230094 -4.2681355 -2.5615108 -1.1861749 -0.035135966
-1.3998986 0.61519516 0.122599706 1.2310705 -0.13967463 -0.09696941 -0.2720671 -0.12019545
-0.52638084 0.14232588 0.4919183 -0.14347185 0.34673324 0.5252348 -0.14215808 0.071550496
-0.06446023 -0.35482317 0.42523134 -0.021734081 0.089586005 -0.02578856 0.27000394 -0.44772235
0.011709413 -0.036245164 0.45627466 0.593759 0.07222997 0.013541113 0.17878298 0.3302897
-0.28298828 -0.1284892 0.3703759 -0.513213 -0.0172025 -0.31512904 0.10292767 -0.25180277
-0.39702064 0.08810479 0.13923077 -1.5072922 0.043428592 0.11405321 -0.62679476 -0.076050654
0.08492467 -0.06670961 0.3534346 0.8754439 -0.32965216 0.31593466 -0.4590976 0.34329927
-0.62806 -0.26507 -0.41318658 -0.12034459 -0.74925774 0.4321263 -0.059054825 -0.56557363
-0.36858255 0.8812314 -1.5166224 0.46528798 -0.3240112 0.58764464 -0.16520928 -0.5964271
-0.12657687 -0.58149666 0.13235945 0.013113966 -0.20325969 0.03531719 -0.0027206838 -1.1075838

model/depthwise_conv2d_2/depthwise f4 [1, 3, 3, 72]
00000000: 4669 c93b 2c74 b0bd 5e1c 1bbf b86c 92bc
00000010: d5cb 83bf e3b1 6a3e ac1f 1b3f b2e0 a2be
00000020: c56f a13e 3488 f03e cad5 db3e c2c3 adbc
00000030: 2a89 c2be 6730 4fbe 3185 3f3f 54f8 523e
00000040: 119c 133f 820a 2c3f 3e3b e8be 9877 c13d
00000050: ca96 2f3f 1c97 b63e ddd8 60be 4f46 c3be
00000060: edd3 1bbe ac57 2abe bd80 b33e 81aa 2a3f
00000070: c125 793f dca3 143e 8ea5 8e3f 9cb7 d53e
00000080: dfc2 86bd 0054 e8be a09a 90bb 0c86 75bf
00000090: 8878 93be 4f3b 243f 386c ea3e 6649 0abf
000000a0: 4159 3bbf 9275 793e 1a2b 153c 350c c4bd
000000b0: 76df 49bd 460a 7abd 545d eabe e352 6bbf
000000c0: 8b4c 31be cc26 38bf c87e 10bf 6439 85be
000000d0: cba9 0d3f 029e 8d3f 7240 35be e76e 11bf
000000e0: 2c9f 4d3e 8736 7b3f 0d7e 33bf 04ef a63f
000000f0: 400c 213f 67b3 c03e 3b6a c63e e8ec 4abf
00000100: 1eff 893f 63a8 7d3f 6e38 a03e 5b09 38be
00000110: 6cbd 43bf 98a9 6cbe 7cb6 573e fba9 86bd
00000120: 5312 393f 54de c1be a0b9 6bbd e024 5d3e
00000130: 7f51 3abe 6d31 c73d 6e93 9d3e 064a 363f
00000140: 88a3 c7bd e5e7 2e3f 59ec fabe be7c b93d
00000150: e7ae ccbe 8e94 1e3f f634 c6be f9cb a13e
00000160: 93ee 4f3e 71ec 813e f878 9bbe 6cc3 e7be
00000170: 5c04 a03e bce1 123f 11a8 473f a0f8 233f
00000180: ccc4 a73c dfe0 9cbe aacc 093f 797d 7b3f
00000190: cec7 083e 93fe e9be 44b6 9a3f 9550 263d
000001a0: 401b 87be 7772 06bf af7f 31bf b288 55be
000001b0: 9c6b a4be 2359 26bf 68ed eabe 8fd8 4e3e
000001c0: 4d10 8abe 72f2 6ebf b361 a43e 59b9 c1be
000001d0: b496 04bf fab1 fcbd 7b07 ccbc f8ec 383d
000001e0: 4dfb 1dbf ddd6 3dbf acd6 873e a594 2cbf
000001f0: cdcd c1bd 94d5 9e3f 6ecf 4b3f 514e 12bf
00000200: 8ded df3e 5a7d d03e 9f29 d0bb b2c4 3e3f
00000210: 729b f63e 005d 03bf f7de 10be 6b44 2ebf
00000220: 7904 6a3f 6d42 823f ab54 283f 4168 81bd
00000230: 8c55 17bf 56c2 843e 0e4f e0be 7daf bdbd
00000240: e457 0b3e b060 2c3f 2374 3e3d 2a9b 8c3e
00000250: 1cee a13e 6e6c 1bbc f38f cabe b842 a53e
00000260: 9d0b 23bf 799b 473f c720 f2bc f179 07bf
00000270: cd45 9cbe 2ae3 673e fe78 bdbe dd46 d73d
00000280: a214 babe ca40 52bf 70e6 1fbf 1aa6 17bf
00000290: f13a 91bb 5be5 8fbd 6a0a 823e 2421 d73d
000002a0: b611 6e3e c0e5 2a3f 6783 813f 65cc 3c3f
000002b0: b30d aabd f884 02b8 398a cb3d 684c 80bd
000002c0: d678 97bf 2054 c0bf 9cc2 5dbf f34c 623f
000002d0: 61f3 8ebe 01f3 b5be 7baa 7cbf 44f2 243f
000002e0: 683b 573d 097d f53d b531 183f 5b67 cf3e
000002f0: 1375 863f 7d7b aa3f f77a c6bd 5788 3f3c
00000300: ae46 703f 1995 833e 5cf3 913f 8fa7 97be
00000310: ee0b febe 443c 343f a480 273d dc69 e83e
00000320: d5fb 0f3f dd51 fc3e 66fd 983e 08d6 c73f
00000330: 413f 7abe 8d8c 84bf 7f31 c7be e5b3 523e
00000340: 7f74 893f 6ecf 923f d960 8d3f 475b 7a3d
00000350: 49d3 54be b684 4a3d d43a 563e 0a37 a8bd
00000360: 76c6 3c3f ba70 6fbf 924b 05bf a27a 38bf
00000370: 7a7f 21bf 3a41 cd3e 9064 cc3e 24ac 80be
00000380: 00b8 3e3e b6d5 2a3d 0f02 553e b83f 323f
00000390: 76b4 7a3e 54ed c9bd 89c6 f63e 2f27 07bf
000003a0: 29e6 88be cb00 66bd 2b86 af3e d7bc be3e
000003b0: 6fdd e03e 294c 1ebf b4ff eb3e 0682 1e3f
000003c0: 640c a9be 2650 91be a257 56be df6f c6be
000003d0: 6eb7 96be 8e73 fa3e f9cd 90be dfe9 da3e
000003e0: 328c 0d3e 96d8 293f ffce 50bf 2a1d 9fbf
000003f0: 58f4 96be 7c87 123f af4a 85bf 736c f8be
0.006146583 -0.08615908 -0.6059016 -0.017874107 -1.029658 0.22919421 0.605952 -0.31812054
0.31530586 0.46978915 0.42936546 -0.021211509 -0.37995273 -0.20233308 0.7481261 0.20602542
0.57660013 0.67203534 -0.45357698 0.09446639 0.6858946 0.35662162 -0.21957727 -0.3813958
-0.15217562 -0.16635007 0.35059157 0.6666642 0.9732323 0.14515632 1.1144273 0.41741645
-0.065801375 -0.45376587 -0.004412964 -0.95907664 -0.28802896 0.64153 0.4578569 -0.5401825
-0.73183066 0.24361256 0.0091045145 -0.09572641 -0.049285375 -0.061044954 -0.4577433 -0.9192335
-0.17314355 -0.719342 -0.5644345 -0.26020348 0.5533721 1.1063845 -0.17700365 -0.5680985
0.2008025 0.9813008 -0.70114213 1.3041692 0.62909317 0.37636873 0.38752922 -0.7926774
1.078098 0.9908506 0.31293052 -0.17972319 -0.7646091 -0.2311157 0.21065706 -0.0657539
0.72293586 -0.37864935 -0.057550073 0.21596098 -0.18195151 0.09726224 0.30776542 0.712067
-0.09747988 0.6832259 -0.49008444 0.09056996 -0.3997719 0.61945426 -0.3871228 0.3160093
0.20305853 0.25375703 -0.3036573 -0.45266283 0.31253326 0.57375693 0.77990824 0.64051247
0.020479582 -0.30640313 0.5382792 0.9823833 0.1335747 -0.45702037 1.2086873 0.040604193
-0.26387978 -0.5251841 -0.69335455 -0.20852926 -0.3211335 -0.6497976 -0.45884252 0.20199798
-0.26965562 -0.9333869 0.3210579 -0.37836722 -0.51792455 -0.12338634 -0.02490591 0.045147866
-0.6171158 -0.7415598 0.2653097 -0.67414314 -0.094630815 1.2408929 0.7961339 -0.5715075
0.43735924 0.40720636 -0.006352618 0.74518883 0.4816547 -0.5131378 -0.14147554 -0.6807315
0.91413075 1.0176522 0.65754193 -0.06318713 -0.5911491 0.25929517 -0.43810314 -0.09261987
0.13607746 0.67335033 0.046497475 0.2746213 0.31626976 -0.009486301 -0.3956295 0.32277465
-0.63689595 0.7797161 -0.029556645 -0.5292044 -0.30522004 0.2264525 -0.37006372 0.10511563
-0.36343867 -0.8213011 -0.62460995 -0.59237826 -0.004432075 -0.07026168 0.2539857 0.10504368
0.23248944 0.6675682 1.0118226 0.7374938 -0.08303394 -3.1118252e-05 0.09938473 -0.06264573
-1.1833751 -1.5025673 -0.86625075 0.88398665 -0.27920058 -0.3553696 -0.9869763 0.6443217
0.05254689 0.11986739 0.59450847 0.4050854 1.0504478 1.3318936 -0.096914224 0.011690221
0.9385785 0.2569969 1.1402392 -0.29620025 -0.49618477 0.7040446 0.040894166 0.45393264
0.5624364 0.49281207 0.29880828 1.5612192 -0.24438192 -1.0355393 -0.3890495 0.20576437
1.0738677 1.1469553 1.104518 0.061122205 -0.20783724 0.04944297 0.20920879 -0.08213623
0.7374033 -0.9353138 -0.52068436 -0.7206212 -0.6308514 0.40088826 0.39920473 -0.25131333
0.18624878 0.041707717 0.20801567 0.6962848 0.24482903 -0.0985972 0.48198345 -0.52794164
-0.26738098 -0.0561531 0.3428205 0.37253448 0.4391894 -0.6183496 0.46093524 0.6191715
-0.33017266 -0.2838146 -0.20931867 -0.38757226 -0.2943682 0.48916286 -0.28282145 0.42756554
0.13823012 0.6634611 -0.8156585 -1.2430775 -0.29483294 0.5723798 -1.0413417 -0.4852024

model/c3/depthwise f4 [1, 3, 3, 72]
00000000: bb6a 80be af24 ea3e f199 363e 0b75 2c3e
00000010: dc3d 16bc 82e4 2b3e 0625 2abe 93b4 dcbe
00000020: 8d0f 2f3f fb6d a0bf 1da4 0cbf b53c 3a3e
00000030: 4b0a e43e 5d2c 0bbe 4e4d 17bf 4b3a 423e
00000040: 0b5c f53d 20d6 c73e b16d 073f 04c5 87be
00000050: 13a1 123f 450b b03e 7e6c 3bbf 1b85 bdbe
00000060: d8dd f53d 6811 cf3e d86b 03bf c5dc 3f3f
00000070: 5fd1 c93e a05a 013f 1da1 c5be d27d 98bd
00000080: b83d 20be 4133 adbe 051e aa3d 7162 40bf
00000090: 5501 3bbe b86d 323f 87e6 703e 6693 5cbe
000000a0: 7277 05be 535a 85be c323 033e d3e8 0ebf
000000b0: ea48 ffbe fb6a dbbe 6ed1 fabe 4f46 4fbe
000000c0: 2afb 5e3d 0608 08bf 1cc1 4d3c facd a2be
000000d0: b525 f13d 1b54 12bf d7d3 d03e 64a2 42be
000000e0: 2163 433e 3a86 2abd a3a2 613f ff12 75be
000000f0: e129 cd3e edfa 36bf 9c45 80be 50fc c5be
00000100: 41d2 8fbe 2e6d aa3e 8ad0 37bf 4cb5 e73d
00000110: bf56 bfbe 9b02 e03d 55f6 363e f284 c3be
00000120: 0cbd 08bc d98e e93d 7d6a 90bd ffd0 ae3e
00000130: 0a18 c43d a873 56be 7390 4bbe 0871 89be
00000140: 2c55 723d 1776 083e 760b f5bd 4456 e93d
00000150: cce3 d4bd 5d2a 5dbd eb8c 5c3f 35db 9c3e
00000160: c459 923e 0bbe 003f be24 593e 7fb2 153f
00000170: c0c5 653d 07fa 65bf d243 ce3e cfa9 30bf
00000180: 6aea 8c3e ed38 673e 511e f43d 2d9b 763e
00000190: 8f39 403f 6997 123e 935f 85bf 63f3 52be
000001a0: 6d5a 30bf cbdc 44be a384 87be f368 40bd
000001b0: bb9c c3bd dcc9 053f 4953 233e 8d0c 80bf
000001c0: 3405 bcbe a53c 57bd 1868 c1bd 5eb9 c0be
000001d0: 34f4 14be 9609 4abe 057c af3d b895 6abe
000001e0: 4936 b03e eaf3 bdbe 7431 93be e06f 2c3f
000001f0: 35d1 1ebd 8d65 aebe 99f1 49be 815e b1be
00000200: 0ac3 a33d 3706 073d e841 bc3c 918a ccbd
00000210: 9175 c2be 5c48 00be 614f 20be e4ab 043f
00000220: f4ad 86be 46af 073f 6685 35bf 7141 e93b
00000230: 058d cbbe bdcf fb3c 82e0 d03e 7408 acbe
00000240: 0f6f 1fbe 1170 0dbd 8f4f 013f 6e64 f23a
00000250: 5121 c0bd 4bdd adbd 1e72 dbbd 64cb 5c3e
00000260: 6328 1f3f ffef 6fbf a204 6c3b 9991 7c3e
00000270: ff1d 6bbd d87b 2b3e ae34 033f 1d77 ddbc
00000280: c8c7 b53e 8d6d 52bd 2d12 283e 64df 963c
00000290: b02e 8e3e 2a60 6abe 7bb4 b4bd dace 06be
000002a0: 946c c33e 4e36 893e 741c 3ebd b550 c33e
000002b0: 1829 763e 9aa0 493e a08c b3bc 5b22 87be
000002c0: 60ee 28bf 0ac1 10be b2b9 5abf d643 953d
000002d0: e6d0 c5be 6429 4fbe 18ab 4d3f 4bea 0c3e
000002e0: c269 a9be 6a10 d43d 18c9 73be 89ce b53e
000002f0: 64c5 bdbd 7638 e7be 54d7 8abe eb8d c2be
00000300: 329c 3d3f d0ee 66bd c678 9dbe 3b11 84bd
00000310: 117b 5e3d bb57 adbd eb86 cb3e cec2 98be
00000320: b922 6b3e 3d3e c9be 94c4 cc3e 88bd 1bbe
00000330: 57fe 853e 2e0e 3e3e 41fb a3bc 2b14 293f
00000340: 1627 3abe b30d e53f b8c2 32bf cd71 a7bd
00000350: 6666 12be 5f9d 5a3e 36e4 6f3e e94f 5fbe
00000360: 2ae3 10be 12d6 6bbe 63f5 b43e 261f 713e
00000370: 4bc3 c63e c5df 60be 8072 a9be a98f d6be
00000380: 6524 aebf 892e 363f 8035 5abe f5b7 d8bd
00000390: ef16 69be 01ca 7cbf 0aaa 7cbe d55f 6c3e
000003a0: 0c7e 2fbe d7fa cb3e 3f18 0c3f e412 f4be
000003b0: 9973 dc3d d860 113a 314a b53e 40e0 16bf
000003c0: 69d6 a83e 039b 8a3d e1b3 4dbe c5c8 513e
000003d0: 6c72 0cc0 512e 8a3d 6c58 c33d 56a3 5cbf
000003e0: 95fa 0a3d d3b3 1dbf f727 84bd 9d3f 31be
000003f0: 3312 79be ba1c c9be b661 593f 042b 01bf
-0.2508143 0.45731112 0.17832161 0.16841523 -0.009170022 0.16786388 -0.16615686 -0.43106517
0.68383104 -1.2533563 -0.54937917 0.1818722 0.44539103 -0.13591142 -0.5910233 0.1896755
0.119804464 0.39030552 0.5290175 -0.26517498 0.5727703 0.34383598 -0.7321242 -0.37015614
0.12005204 0.40442967 -0.5133643 0.7494624 0.3941755 0.5052891 -0.38599482 -0.07445873
-0.15648544 -0.33828166 0.08306507 -0.7515021 -0.18262227 0.6969867 0.23525439 -0.21540603
-0.13033846 -0.26045474 0.12806611 -0.5582401 -0.49860317 -0.42855057 -0.48987907 -0.20241664
0.054438747 -0.5313724 0.012558248 -0.31797773 0.1177477 -0.57159585 0.4078662 -0.1900726
0.19080783 -0.041631915 0.8813879 -0.23933028 0.40071014 -0.7147663 -0.25053108 -0.38669062
-0.28090099 0.33286422 -0.7180258 0.113138765 -0.3737087 0.10937997 0.17867406 -0.38187367
-0.008345854 0.11404199 -0.07051561 0.34143826 0.095748976 -0.20942557 -0.19879322 -0.26844049
0.059163257 0.13326298 -0.119650766 0.11393407 -0.10395011 -0.05399548 0.86152524 0.30635992
0.2858411 0.5028998 0.21205422 0.5847549 0.056096792 -0.89834636 0.40286118 -0.6900911
0.27522594 0.22580309 0.11919845 0.24082632 0.7508783 0.14315571 -1.0419792 -0.20600657
-0.6888798 -0.19224851 -0.2646838 -0.046975087 -0.09551378 0.5226114 0.1594974 -1.000383
-0.3672272 -0.05254807 -0.094436824 -0.37641424 -0.14546281 -0.19730219 0.08568577 -0.22908676
0.34416416 -0.37100154 -0.28748667 0.6735821 -0.038773734 -0.34061852 -0.19721068 -0.34642413
0.07996185 0.03296491 0.022980645 -0.09987367 -0.3798032 -0.12527603 -0.1565528 0.51824784
-0.2630459 0.5300182 -0.70906675 0.007118397 -0.39756027 0.030738706 0.40796286 -0.336002
-0.15569709 -0.034530703 0.5051202 0.0018493065 -0.093813546 -0.08489474 -0.107151255 0.21561962
0.62171 -0.9372558 0.0036013504 0.24664916 -0.057401653 0.16746461 0.5125226 -0.027034337
0.35503983 -0.051374007 0.16413184 0.018417068 0.27769995 -0.22888246 -0.088234864 -0.13164845
0.38168776 0.26799244 -0.046413854 0.38147512 0.24039114 0.19690171 -0.021917641 -0.263934
-0.6598873 -0.14136139 -0.854396 0.07288329 -0.3863594 -0.20230633 0.80339193 0.1376125
-0.330885 0.10354693 -0.2380718 0.35509136 -0.09266165 -0.45160264 -0.27117407 -0.379989
0.7406646 -0.056380093 -0.30756205 -0.06448599 0.054316584 -0.08463999 0.39751372 -0.29836124
0.22962464 -0.39305297 0.39993727 -0.15209019 0.26170608 0.18560097 -0.020017268 0.660464
-0.18178973 1.7894806 -0.6982837 -0.08176003 -0.14296874 0.21349095 0.234269 -0.21807827
-0.14149156 -0.2303088 0.35343465 0.23547038 0.38820872 -0.21960361 -0.3309517 -0.4190648
-1.3604857 0.71164757 -0.21309471 -0.10581962 -0.22762655 -0.98745733 -0.2467424 0.23083432
-0.17137927 0.39839813 0.54724497 -0.47670662 0.10764236 0.0005545742 0.35408166 -0.5893593
0.32976082 0.067678474 -0.2008815 0.20486744 -2.1944838 0.067471154 0.095383495 -0.8618673
0.03393038 -0.61602515 -0.06452935 -0.17309423 -0.24323349 -0.3927973 0.8491472 -0.5045626

model/depthwise_conv2d_3/depthwise i1 [1, 3, 3, 144]
00000000: a1d6 e381 dc10 f305 af18 4081 9418 e0ee
00000010: 5664 bc0b 9041 b72b d6fd f481 737f 1c3f
00000020: 5bf9 cb33 7f33 e2d9 1234 e276 a9b2 a081
00000030: 717f bb7f bf7f 14e2 a67f fb7f a39a 153e
00000040: 14cf a70f d438 2fc5 a1f5 f87f f881 7181
00000050: d447 3d01 c434 e829 9c23 0aad 0fd5 b0f3
00000060: d9c3 4f30 7a21 eef6 9942 8481 6a7f 4e7f
00000070: f407 7f41 96d3 07cf c97f 6920 81ca 137f
00000080: 5bab 07fd eee6 dfe8 ca81 21fc de2c 98bc
00000090: 4d35 f0ae c407 9c01 81c1 e487 68f7 7f00
000000a0: c172 81af fb03 c81a 5ddb 0efd b014 f438
000000b0: e030 ebed 3752 198a d6dd 69f8 02de 0acb
000000c0: 656b 44af e93f 7f08 c633 c022 1add 1e0f
000000d0: eb15 14f8 6559 f287 e62d 32b4 9ac9 ec26
000000e0: 1283 2c04 a553 1c55 daa8 c9d2 4646 020c
000000f0: 8163 b6b6 5e65 ca01 b088 81ea 2b03 492b
-95 -42 -29 -127 -36 16 -13 5
-81 24 64 -127 -108 24 -32 -18
86 100 -68 11 -112 65 -73 43
-42 -3 -12 -127 115 127 28 63
91 -7 -53 51 127 51 -30 -39
18 52 -30 118 -87 -78 -96 -127
113 127 -69 127 -65 127 20 -30
-90 127 -5 127 -93 -102 21 62
20 -49 -89 15 -44 56 47 -59
-95 -11 -8 127 -8 -127 113 -127
-44 71 61 1 -60 52 -24 41
-100 35 10 -83 15 -43 -80 -13
-39 -61 79 48 122 33 -18 -10
-103 66 -124 -127 106 127 78 127
-12 7 127 65 -106 -45 7 -49
-55 127 105 32 -127 -54 19 127
91 -85 7 -3 -18 -26 -33 -24
-54 -127 33 -4 -34 44 -104 -68
77 53 -16 -82 -60 7 -100 1
-127 -63 -28 -121 104 -9 127 0
-63 114 -127 -81 -5 3 -56 26
93 -37 14 -3 -80 20 -12 56
-32 48 -21 -19 55 82 25 -118
-42 -35 105 -8 2 -34 10 -53
101 107 68 -81 -23 63 127 8
-58 51 -64 34 26 -35 30 15
-21 21 20 -8 101 89 -14 -121
-26 45 50 -76 -102 -55 -20 38
18 -125 44 4 -91 83 28 85
-38 -88 -55 -46 70 70 2 12
-127 99 -74 -74 94 101 -54 1
-80 -120 -127 -22 43 3 73 43

model/c4/depthwise i1 [1, 3, 3, 144]
00000000: 3e7f f181 04e5 901a 7ff7 ab3e 6005 f1dc
00000010: 077f fc08 3ffc a901 faef e581 f281 8181
00000020: ceff f435 3e98 1a91 6d9b 0206 f3de 3e09
00000030: 4d01 5d7f 4763 3b7f 9d15 451e 047f fecf
00000040: ef74 9134 35b6 0fa5 4a7f d87f 7ff9 97f4
00000050: f6f2 8bff 77e6 43d6 2ed8 77fb f4de 087f
00000060: dac5 8496 c009 6a0f 3b7f c77f f295 e17f
00000070: f803 7f24 81da 06f3 4760 212f fb60 d0a5
00000080: ac2f 0b7f d18d 3468 347f 1c16 d6cc 7f81
00000090: 5741 e0ce 81b0 044c 0cf1 100b 1211 c881
000000a0: 2359 6130 3613 497f 1e0c f1f5 8ea6 bae5
000000b0: 0e61 b96f 7fe8 c2f7 bc81 aefc 0ae3 3e3b
000000c0: c503 7f08 7f7f 7f24 9ad3 fd7f 9b27 b9c4
000000d0: 09c5 8143 7f7f 4abf 7f35 e1a2 051c 4c3b
000000e0: 37da 8e7f 28f1 3b53 4062 3e0b f281 b555
000000f0: 3481 3f97 c257 bd81 3ad1 8148 8fd0 7f7c
62 127 -15 -127 4 -27 -112 26
127 -9 -85 62 96 5 -15 -36
7 127 -4 8 63 -4 -87 1
-6 -17 -27 -127 -14 -127 -127 -127
-50 -1 -12 53 62 -104 26 -111
109 -101 2 6 -13 -34 62 9
77 1 93 127 71 99 59 127
-99 21 69 30 4 127 -2 -49
-17 116 -111 52 53 -74 15 -91
74 127 -40 127 127 -7 -105 -12
-10 -14 -117 -1 119 -26 67 -42
46 -40 119 -5 -12 -34 8 127
-38 -59 -124 -106 -64 9 106 15
59 127 -57 127 -14 -107 -31 127
-8 3 127 36 -127 -38 6 -13
71 96 33 47 -5 96 -48 -91
-84 47 11 127 -47 -115 52 104
52 127 28 22 -42 -52 127 -127
87 65 -32 -50 -127 -80 4 76
12 -15 16 11 18 17 -56 -127
35 89 97 48 54 19 73 127
30 12 -15 -11 -114 -90 -70 -27
14 97 -71 111 127 -24 -62 -9
-68 -127 -82 -4 10 -29 62 59
-59 3 127 8 127 127 127 36
-102 -45 -3 127 -101 39 -71 -60
9 -59 -127 67 127 127 74 -65
127 53 -31 -94 5 28 76 59
55 -38 -114 127 40 -15 59 83
64 98 62 11 -14 -127 -75 85
52 -127 63 -105 -62 87 -67 -127
58 -47 -127 72 -113 -48 127 124

model/depthwise_conv2d_4/depthwise i1 [1, 3, 3, 288]
00000000: 2922 9ec2 1cd5 8119 7f9a 2254 ab81 fd7c
00000010: d17d d7b6 f3f0 2155 84ce 8193 7f44 1850
00000020: bf11 f393 2000 c20f d0e4 d2dc ab81 dc65
00000030: 2c2a 7f0d 1f06 7f05 8670 333c 16fb 1a7f
00000040: 18d2 7f81 5a90 1e16 6d5f 959b 0402 3492
00000050: 81f7 b276 ce47 8177 bfdf f888 5c5c 817f
00000060: 81f5 d420 b5ee 090a 52b5 ed77 8181 7fb5
00000070: 1ca1 e77f 81cf 8132 7f46 81f9 e781 d27f
00000080: 3df0 817f 7859 230e f1d3 7fa3 db0f cad7
00000090: 44b9 20d3 8788 04b6 c94a 509c 1681 2802
000000a0: 7f59 a181 6024 04fe 4ea7 2aee 81c6 0a81
000000b0: 3ee1 c7d1 b1d4 0306 2491 7fb0 b3b9 e981
000000c0: d8b9 8179 7f7f 7f01 6904 7f09 2a9d b77f
000000d0: 3a50 4026 817f 397f 8150 f356 81b2 8563
000000e0: 81b0 bb35 a481 fd49 814c 7fe3 1ed5 7ccc
000000f0: f390 8103 877f b2f1 7f30 7f6e 7fa0 81b4
41 34 -98 -62 28 -43 -127 25
127 -102 34 84 -85 -127 -3 124
-47 125 -41 -74 -13 -16 33 85
-124 -50 -127 -109 127 68 24 80
-65 17 -13 -109 32 0 -62 15
-48 -28 -46 -36 -85 -127 -36 101
44 42 127 13 31 6 127 5
-122 112 51 60 22 -5 26 127
24 -46 127 -127 90 -112 30 22
109 95 -107 -101 4 2 52 -110
-127 -9 -78 118 -50 71 -127 119
-65 -33 -8 -120 92 92 -127 127
-127 -11 -44 32 -75 -18 9 10
82 -75 -19 119 -127 -127 127 -75
28 -95 -25 127 -127 -49 -127 50
127 70 -127 -7 -25 -127 -46 127
61 -16 -127 127 120 89 35 14
-15 -45 127 -93 -37 15 -54 -41
68 -71 32 -45 -121 -120 4 -74
-55 74 80 -100 22 -127 40 2
127 89 -95 -127 96 36 4 -2
78 -89 42 -18 -127 -58 10 -127
62 -31 -57 -47 -79 -44 3 6
36 -111 127 -80 -77 -71 -23 -127
-40 -71 -127 121 127 127 127 1
105 4 127 9 42 -99 -73 127
58 80 64 38 -127 127 57 127
-127 80 -13 86 -127 -78 -123 99
-127 -80 -69 53 -92 -127 -3 73
-127 76 127 -29 30 -43 124 -52
-13 -112 -127 3 -121 127 -78 -15
127 48 127 110 127 -96 -127 -76

model/c5/depthwise i1 [1, 3, 3, 288]
00000000: 0d68 7f3e e5b3 81e4 512a d047 d4ad 21c8
00000010: 3981 2f0c 2c1c dd81 353e d3b6 1912 4354
00000020: c554 e477 60c8 6781 2c81 3b28 89f8 581a
00000030: 8e3e c5db dc02 7f37 a081 bc15 44ec f907
00000040: e8d2 44a0 81c1 a21f 817f 437f e376 c75b
00000050: 8582 6d7f a8ff 8128 81fd 24e3 818d 182f
00000060: 077f 9281 db6d 287f 7f7e 1f7f 7f81 7f31
00000070: 0581 f4d9 de21 8150 8148 7b73 f1a7 819b
00000080: f504 0816 d681 913b 6c21 5176 8164 66ab
00000090: 3919 ec2a 61e9 8181 422d 7dd3 ccda 81f4
000000a0: b78f 6066 bd0b 7ff1 f276 141c 81d9 cd81
000000b0: 583d cde4 0b81 0b2c 317f 7f3c ea26 7f98
000000c0: 7fc1 fb8c b5a0 81b4 307f 7fde 8151 097f
000000d0: f081 7ff6 7fb3 9e7f 0966 814c 1e81 9e7f
000000e0: 207f 08a0 4a81 477f b80f 9f05 caf7 6e28
000000f0: 1b0e 7f7f a7d7 8a31 7ff2 73b1 52dc 8128
13 104 127 62 -27 -77 -127 -28
81 42 -48 71 -44 -83 33 -56
57 -127 47 12 44 28 -35 -127
53 62 -45 -74 25 18 67 84
-59 84 -28 119 96 -56 103 -127
44 -127 59 40 -119 -8 88 26
-114 62 -59 -37 -36 2 127 55
-96 -127 -68 21 68 -20 -7 7
-24 -46 68 -96 -127 -63 -94 31
-127 127 67 127 -29 118 -57 91
-123 -126 109 127 -88 -1 -127 40
-127 -3 36 -29 -127 -115 24 47
7 127 -110 -127 -37 109 40 127
127 126 31 127 127 -127 127 49
5 -127 -12 -39 -34 33 -127 80
-127 72 123 115 -15 -89 -127 -101
-11 4 8 22 -42 -127 -111 59
108 33 81 118 -127 100 102 -85
57 25 -20 42 97 -23 -127 -127
66 45 125 -45 -52 -38 -127 -12
-73 -113 96 102 -67 11 127 -15
-14 118 20 28 -127 -39 -51 -127
88 61 -51 -28 11 -127 11 44
49 127 127 60 -22 38 127 -104
127 -63 -5 -116 -75 -96 -127 -76
48 127 127 -34 -127 81 9 127
-16 -127 127 -10 127 -77 -98 127
9 102 -127 76 30 -127 -98 127
32 127 8 -96 74 -127 71 127
-72 15 -97 5 -54 -9 110 40
27 14 127 127 -89 -41 -118 49
127 -14 115 -79 82 -36 -127 40

model/depthwise_conv2d_5/depthwise i1 [1, 3, 3, 288]
00000000: ba32 2eae e0f6 a17f 2752 f028 3147 7f5e
00000010: 7f3f 1e21 7f28 26db c03e 3a00 e4db 0ff5
00000020: 81bb 2c7f 7f81 3c22 68fb ffb2 7f7f 4fdd
00000030: 7fbd 40ae 7f4d d815 7f7f 4ca9 2818 d307
00000040: 6dcf 2c81 d17f a913 19eb 16f6 070d 13dc
00000050: 1b74 f6f0 81fe d28b 7f1a 5cea 4c81 9981
00000060: 0837 81c7 7fff 817f 38dc bb2e f111 cc2a
00000070: 31c1 de0f 4b29 287f 19db 4398 f7ce c781
00000080: f677 cb64 7fff 813c e2f9 067a 2adb 3aec
00000090: cd7f 425c c9e1 92dc 92c0 03d2 2dfd 30ad
000000a0: ecde de1d c135 0581 a72b 56f3 4a2b 7f90
000000b0: bfff 03ec 27fe 4b15 1159 bdab 06e8 b4a9
000000c0: f2a1 9ff0 ff3b 1a53 e417 fc09 5079 81d2
000000d0: 0700 2546 f5e2 0102 f952 362a d718 b020
000000e0: 062e 0981 d302 155e 3360 c5a8 c359 b181
000000f0: 3acb f071 d8ca 8e01 c105 81a0 ea81 7fc0
-70 50 46 -82 -32 -10 -95 127
39 82 -16 40 49 71 127 94
127 63 30 33 127 40 38 -37
-64 62 58 0 -28 -37 15 -11
-127 -69 44 127 127 -127 60 34
104 -5 -1 -78 127 127 79 -35
127 -67 64 -82 127 77 -40 21
127 127 76 -87 40 24 -45 7
109 -49 44 -127 -47 127 -87 19
25 -21 22 -10 7 13 19 -36
27 116 -10 -16 -127 -2 -46 -117
127 26 92 -22 76 -127 -103 -127
8 55 -127 -57 127 -1 -127 127
56 -36 -69 46 -15 17 -52 42
49 -63 -34 15 75 41 40 127
25 -37 67 -104 -9 -50 -57 -127
-10 119 -53 100 127 -1 -127 60
-30 -7 6 122 42 -37 58 -20
-51 127 66 92 -55 -31 -110 -36
-110 -64 3 -46 45 -3 48 -83
-20 -34 -34 29 -63 53 5 -127
-89 43 86 -13 74 43 127 -112
-65 -1 3 -20 39 -2 75 21
17 89 -67 -85 6 -24 -76 -87
-14 -95 -97 -16 -1 59 26 83
-28 23 -4 9 80 121 -127 -46
7 0 37 70 -11 -30 1 2
-7 82 54 42 -41 24 -80 32
6 46 9 -127 -45 2 21 94
51 96 -59 -88 -61 89 -79 -127
58 -53 -16 113 -40 -54 -114 1
-63 5 -127 -96 -22 -127 127 -64

model/c6/depthwise i1 [1, 3, 3, 288]
00000000: 8a7f 00f5 21cd 4181 f77a 7f1e 4aec 81c1
00000010: b414 22ab 81ed 9d7a 947f 7fce f333 243c
00000020: 7f45 8176 7f7f fc3b 7fe1 2f3c 7f7f 4407
00000030: 7e81 d408 8135 b330 813e 2bbf 86eb 47de
00000040: 7fb8 1a7f 3f7f 655c d848 0621 6f67 ebf0
00000050: 2841 817f 5e10 d7f7 d15c 43d6 747f c27f
00000060: f7e3 8114 86dd 8181 f4ba 3164 43f2 81c9
00000070: f789 d9f9 dac1 f9c0 49ac 733f 059a 7c71
00000080: 0044 07dd 81bf a9af 8933 1f44 4486 0854
00000090: 5481 2c13 4c82 a4eb b495 e712 0982 21f1
000000a0: 70f1 1f2e d22a 9f81 323c c908 a7ce d058
000000b0: 218b 750e c407 2a7f 7f37 6312 1fe4 fb0a
000000c0: ba3d de1b 242a 811a b433 ed81 4441 1dd6
000000d0: c815 17e7 8191 0faf e0fc 4352 0a56 161d
000000e0: 89ec 3202 5d16 ff50 87fd 0e10 8181 7fb6
000000f0: bc46 b01e b057 320b db0d d5dd b75d e603
-118 127 0 -11 33 -51 65 -127
-9 122 127 30 74 -20 -127 -63
-76 20 34 -85 -127 -19 -99 122
-108 127 127 -50 -13 51 36 60
127 69 -127 118 127 127 -4 59
127 -31 47 60 127 127 68 7
126 -127 -44 8 -127 53 -77 48
-127 62 43 -65 -122 -21 71 -34
127 -72 26 127 63 127 101 92
-40 72 6 33 111 103 -21 -16
40 65 -127 127 94 16 -41 -9
-47 92 67 -42 116 127 -62 127
-9 -29 -127 20 -122 -35 -127 -127
-12 -70 49 100 67 -14 -127 -55
-9 -119 -39 -7 -38 -63 -7 -64
73 -84 115 63 5 -102 124 113
0 68 7 -35 -127 -65 -87 -81
-119 51 31 68 68 -122 8 84
84 -127 44 19 76 -126 -92 -21
-76 -107 -25 18 9 -126 33 -15
112 -15 31 46 -46 42 -97 -127
50 60 -55 8 -89 -50 -48 88
33 -117 117 14 -60 7 42 127
127 55 99 18 31 -28 -5 10
-70 61 -34 27 36 42 -127 26
-76 51 -19 -127 68 65 29 -42
-56 21 23 -25 -127 -111 15 -81
-32 -4 67 82 10 86 22 29
-119 -20 50 2 93 22 -1 80
-121 -3 14 16 -127 -127 127 -74
-68 70 -80 30 -80 87 50 11
-37 13 -43 -35 -73 93 -26 3

model/depthwise_conv2d_6/depthwise i1 [1, 3, 3, 144]
00000000: 81e9 7f2f 717f 82de 54f4 cc7f 81fa 6255
00000010: d3f5 9a4d 7f0f 0f7f ef0a 7f27 bf7f 07f6
00000020: 5e0e 6ed7 240c 1aca 34e1 0b2c 04dc 7f7f
00000030: 81f0 14c6 f4a0 0508 da1a 3d7f 1681 d5ff
00000040: 7ff7 9d81 1ef2 2338 3058 7f81 65d3 e019
00000050: ec88 23cf eb82 e082 7f5b 3931 062d 293d
00000060: f2fa 2f01 7f25 aecd 11ad 7fec 071b b73d
00000070: 817f 1935 8139 d8b6 7f14 bbc3 8aea c310
00000080: 02af 10ed a57f 9581 1d7c f842 2db5 d95f
00000090: c610 1c07 2e0f ea0c db0a 3661 ddee 40e6
000000a0: 9524 98fd edf3 1c42 0ff4 1dc8 8472 6d1d
000000b0: 1c04 26fa 04ec 4135 f708 e22a 2c12 1944
000000c0: dfc9 2340 f022 e313 0c1b b6f5 1bc8 0e22
000000d0: 6703 fad0 1320 0dca 7f7f 7612 7fd2 817f
000000e0: 81a3 e0e7 66c0 7e92 eb23 de62 dc68 45da
000000f0: ec08 c502 7918 81d5 cdcd 2af9 07da a87f
-127 -23 127 47 113 127 -126 -34
84 -12 -52 127 -127 -6 98 85
-45 -11 -102 77 127 15 15 127
-17 10 127 39 -65 127 7 -10
94 14 110 -41 36 12 26 -54
52 -31 11 44 4 -36 127 127
-127 -16 20 -58 -12 -96 5 8
-38 26 61 127 22 -127 -43 -1
127 -9 -99 -127 30 -14 35 56
48 88 127 -127 101 -45 -32 25
-20 -120 35 -49 -21 -126 -32 -126
127 91 57 49 6 45 41 61
-14 -6 47 1 127 37 -82 -51
17 -83 127 -20 7 27 -73 61
-127 127 25 53 -127 57 -40 -74
127 20 -69 -61 -118 -22 -61 16
2 -81 16 -19 -91 127 -107 -127
29 124 -8 66 45 -75 -39 95
-58 16 28 7 46 15 -22 12
-37 10 54 97 -35 -18 64 -26
-107 36 -104 -3 -19 -13 28 66
15 -12 29 -56 -124 114 109 29
28 4 38 -6 4 -20 65 53
-9 8 -30 42 44 18 25 68
-33 -55 35 64 -16 34 -29 19
12 27 -74 -11 27 -56 14 34
103 3 -6 -48 19 32 13 -54
127 127 118 18 127 -46 -127 127
-127 -93 -32 -25 102 -64 126 -110
-21 35 -34 98 -36 104 69 -38
-20 8 -59 2 121 24 -127 -43
-51 -51 42 -7 7 -38 -88 127

model/c7/depthwise i1 [1, 3, 3, 144]
00000000: a2fa 81e8 e6a6 86ef f805 e063 7ffa b245
00000010: 01d7 3f26 7c18 0181 74f0 44df 819c fdf1
00000020: fbfc 42eb e0d8 e4fa afd1 e037 fe48 7f81
00000030: 7ff7 fbea f8ec a860 98da a17f 8181 e8d6
00000040: 9e04 a8d3 e0fd eaf2 2881 428e 3fcf de88
00000050: b652 7f81 5a20 7f84 7f41 15b4 2907 95db
00000060: f4f4 46fa cc67 22d9 4f0a 3d37 5c12 1301
00000070: 7fab 0d76 297f b809 6bf0 5937 4230 471a
00000080: 2f6e 567f dd04 1524 5990 bd25 926a 33b0
00000090: b08e cfee 02cf c5e3 f102 814d 3e74 817f
000000a0: 8281 7455 f35c fe03 7137 51ce ffb2 0a81
000000b0: 1dea 37c3 42cf fd5d cbde c756 b944 4c8b
000000c0: 7b02 01a8 fa32 87fe e254 f7b1 d285 fcad
000000d0: f5ff 0385 e2ff e489 7f8f 7fb4 1881 35c2
000000e0: 817f 59d9 736d 41b8 2af0 53cb 2a5b 81a4
000000f0: fb26 7f1c ba00 5681 4ba5 6f46 a808 e23b
-94 -6 -127 -24 -26 -90 -122 -17
-8 5 -32 99 127 -6 -78 69
1 -41 63 38 124 24 1 -127
116 -16 68 -33 -127 -100 -3 -15
-5 -4 66 -21 -32 -40 -28 -6
-81 -47 -32 55 -2 72 127 -127
127 -9 -5 -22 -8 -20 -88 96
-104 -38 -95 127 -127 -127 -24 -42
-98 4 -88 -45 -32 -3 -22 -14
40 -127 66 -114 63 -49 -34 -120
-74 82 127 -127 90 32 127 -124
127 65 21 -76 41 7 -107 -37
-12 -12 70 -6 -52 103 34 -39
79 10 61 55 92 18 19 1
127 -85 13 118 41 127 -72 9
107 -16 89 55 66 48 71 26
47 110 86 127 -35 4 21 36
89 -112 -67 37 -110 106 51 -80
-80 -114 -49 -18 2 -49 -59 -29
-15 2 -127 77 62 116 -127 127
-126 -127 116 85 -13 92 -2 3
113 55 81 -50 -1 -78 10 -127
29 -22 55 -61 66 -49 -3 93
-53 -34 -57 86 -71 68 76 -117
123 2 1 -88 -6 50 -121 -2
-30 84 -9 -79 -46 -123 -4 -83
-11 -1 3 -123 -30 -1 -28 -119
127 -113 127 -76 24 -127 53 -62
-127 127 89 -39 115 109 65 -72
42 -16 83 -53 42 91 -127 -92
-5 38 127 28 -70 0 86 -127
75 -91 111 70 -88 8 -30 59

model/depthwise_conv2d_7/depthwise f4 [1, 3, 3, 72]
00000000: fd53 e43d a73d 10bf cd24 313d 9bf1 64bf
00000010: 4cd6 543e daeb ebbe 6cc0 e1bd 52c7 b03e
00000020: f8d4 703e 0ccf e53d 33cc d83d 307a b2bd
00000030: a442 d43e 985d bdbd 25a0 e63e 66c1 313f
00000040: 1a69 31be d15b 3fbe 4562 1bbc 858b c43e
00000050: 6bc8 cc3d d400 063f 0ab2 b2bd eca9 9fbf
00000060: 64a8 99be cb7d 12bd 042f 64bd 678d 5bbe
00000070: f6b3 87bd 910e 8c3f 289a 02bf 526d d33e
00000080: 5fc7 ce3c 0f11 033f c169 f53d 8586 433e
00000090: 8966 17bf 099f 713f 4921 c43f 96d1 60be
000000a0: 7c58 853c 1291 083f d8ef 8cbe ed39 88bc
000000b0: fbab 39be 8ffb fb3e 8b4a 62bf 4af9 c13e
000000c0: 361a c83e dc1a 1a3f 3060 ba3d e1ce ae3d
000000d0: 79fd 6abb c114 e6bd ba0b 363f cdca a53f
000000e0: 49f6 94bf 5845 203e 5ecb fa3e 492b 233f
000000f0: f2b8 383f 69b0 3d3f c596 d63d 5ccd 303f
00000100: 364a fd3e 65ae 69be 1a52 d8be ca1e 99be
00000110: 1dac 75bf a7d1 fcbf 6cb5 0bbf eddd 403d
00000120: 5f98 90be 8494 c83d 7f3d 02bc 689c 0bbe
00000130: c675 bc3b bb3c 68bc 4443 6b3e 1b72 a13d
00000140: 1b92 703c a39d 593d 33a9 07bd 37e1 483e
00000150: fbc8 e5bc 80e5 163e ad94 d7bd 6082 33be
00000160: a4be 22be 08a2 503d c140 3abd 6e77 553e
00000170: b25c e13c 17d5 7fbd 1f30 9cbb 2119 2d3e
00000180: e873 583d 4854 09be c2e3 11bd 1448 23bd
00000190: 2dc3 ea3d 0214 163e 3ff9 263e 84c7 5dbe
000001a0: 634e 36bd fba8 51bd 662a 87bc 593e 67bd
000001b0: 278a 08bf b35e 8f3d 74bc e63e 84df b73e
000001c0: aaef 523e e05a 613e 4f59 993f 58e5 c73e
000001d0: 2e95 10bf b06d 11be 1986 bfbf fcaa 71bf
000001e0: f5d0 56be afcd 0abf f115 14bf fdd9 79bf
000001f0: 4ec7 59bf 75e5 2cbe de53 9f3e 9891 963f
00000200: 2e49 67bf 2236 b4be f727 0cbe d8ba 7a3e
00000210: 053d abbe 2faa 8e3e be3c ff3e 9e2c a9be
00000220: 2481 7b3f 1130 2ac0 43d7 a6bf b4b8 313e
00000230: b920 af3f 52ed 61bf 200e 1abe 1717 373f
00000240: d3e5 0b3f 6356 04be 3d88 7abf cf19 823e
00000250: 9185 613d 39cf e93e de75 163f df4a cf3e
00000260: 896f 48bd 6d97 babe 45bf 033f b60c 95bf
00000270: 994b 70bd 1588 433d fd90 4a3d cf7a 913e
00000280: 2f5c 39be 5875 de3d 4ab9 d13e 3a8a fe3e
00000290: 38c6 b0bd abad 94be 646d 503e dbb6 fbbd
000002a0: 8640 12bf df63 d6bd c693 103e 1ff3 c13f
000002b0: 1d28 cabe 2f7a b53e 3315 aabe f92f 88bd
000002c0: 5648 ddbe e6a0 7b3e e017 733e 0a39 bdbe
000002d0: 7e9c cfbd 3b40 c2bc cced 1c3f 1752 563f
000002e0: 42fd eb3d 567a 9dbd 5859 a8bb 46f1 913f
000002f0: cb55 2c3f a20e 60bf 8b54 fd3e 4a80 6d3f
00000300: fde9 22bf f17f 75be 8bc2 56bf 6eaf aa3e
00000310: b43a d53d e09e cd3e 4200 9ebf 3841 cf3e
00000320: 79d5 a93f b98f 5abd 2964 bb3e 4773 94bf
00000330: 70ca 4cbf 8354 653e 98c2 dd3e 80ba 8dbf
00000340: 533f 33bf 0cd5 b83c 30e0 e5bf 5efd 383f
00000350: 739e 21be 3c68 ee3d 3083 ac3d 429c be3d
00000360: 2e44 89be 0c02 bb3e cb9f b43b ca39 57bd
00000370: 164e 283e f662 433e 3b2f e3ba da0a a73b
00000380: 28c9 2d3e a1aa 413c f290 96bd dc99 d7ba
00000390: a546 b4bd 1777 233d 8837 cdbd 4fc3 ddbd
000003a0: e3d9 9a3d 55af c7bc 6bcd b23d 551f 37be
000003b0: 9e99 1f3e 0d05 ee3d 37b2 14bf 41b1 c23e
000003c0: ea71 aa3d 34a4 173d 9fdc e7bd df05 983d
000003d0: ed8d 123b 9114 86bd 4e89 823d 41cf 03be
000003e0: d98e b53c 89be 933c 84a3 193e fb8f 813e
000003f0: 05fa 61be 4fdb 07bf a521 d2bf 4eea 13bd
0.11148832 -0.56344074 0.043247987 -0.8943116 0.20784873 -0.46078378 -0.1102303 0.3452707
0.23518741 0.11221132 0.10585823 -0.08714712 0.41457093 -0.09246367 0.45044056 0.6943573
-0.1732525 -0.18687369 -0.0094838785 0.38387695 0.09999164 0.52345014 -0.087253645 -1.2473731
-0.30011284 -0.035764497 -0.0557089 -0.2144066 -0.06626122 1.0941945 -0.51016474 0.41294342
0.025241552 0.51197904 0.119830616 0.19094284 -0.5914083 0.94383293 1.5322658 -0.2195495
0.016277544 0.5334636 -0.27526736 -0.016629184 -0.18132012 0.4921536 -0.88394994 0.37885505
0.39082497 0.60197234 0.091003776 0.08535553 -0.0035856648 -0.11234427 0.71111643 1.2952515
-1.163766 0.15651453 0.48983282 0.6373792 0.72157204 0.74097306 0.10477976 0.69063354
0.4947068 -0.22820432 -0.4225014 -0.29906303 -0.9596575 -1.9751481 -0.545737 0.047086645
-0.2824125 0.09793952 -0.007949232 -0.13633883 0.0057513444 -0.0141746355 0.22974879 0.07883092
0.014683272 0.05312885 -0.033120345 0.19617163 -0.028049937 0.14735985 -0.105264045 -0.17530203
-0.15893036 0.050935775 -0.04547191 0.2084634 0.02751002 -0.062459078 -0.0047664787 0.16904117
0.05284491 -0.13411057 -0.035617597 -0.03986366 0.11463008 0.1465607 0.16306017 -0.2165814
-0.04450835 -0.051186543 -0.01649971 -0.056455944 -0.53335804 0.07000484 0.45065653 0.35912716
0.20599237 0.22007322 1.198038 0.39042163 -0.5647763 -0.14201999 -1.4962798 -0.94401526
-0.20978148 -0.542201 -0.5784598 -0.9759825 -0.8506974 -0.16884406 0.31118673 1.1763182
-0.9034604 -0.3519755 -0.1368712 0.24485338 -0.33444992 0.27864215 0.4985103 -0.33041853
0.9824393 -2.6591837 -1.3034443 0.17355615 1.3681861 -0.8825275 -0.15044451 0.7151961
0.5464756 -0.12923579 -0.97864133 0.25410315 0.05505902 0.4566591 0.587736 0.4048681
-0.048934493 -0.36443654 0.5146373 -1.1644504 -0.058665846 0.0477372 0.049454678 0.28414008
-0.18101572 0.10862225 0.40961677 0.49714833 -0.08631557 -0.29038748 0.20354229 -0.12290736
-0.57129705 -0.10468268 0.14118871 1.515232 -0.3948373 0.3544478 -0.332193 -0.06649775
-0.4321925 0.24573097 0.23739576 -0.3695758 -0.101372704 -0.023712268 0.6130035 0.8371901
0.115229145 -0.07689349 -0.0051376037 1.1401756 0.6731841 -0.8752233 0.49478564 0.9277388
-0.6363829 -0.23974587 -0.838906 0.33336967 0.10411587 0.40160275 -1.2343829 0.40479445
1.3268272 -0.05335972 0.36599854 -1.159768 -0.79996395 0.2239552 0.43312526 -1.107254
-0.700185 0.022562526 -1.7959042 0.7226161 -0.157831 0.11640975 0.084234595 0.093071476
-0.2680983 0.36525 0.005512213 -0.052545346 0.16436037 0.1908072 -0.0017332801 0.005097729
0.16971266 0.011820466 -0.07351865 -0.0016449052 -0.08802537 0.039908495 -0.10020357 -0.10828268
0.0756109 -0.024375597 0.087305866 -0.17883046 0.15585944 0.11622057 -0.58084434 0.3802586
0.08322509 0.03702183 -0.11321377 0.07422995 0.0022362426 -0.065468915 0.06373845 -0.1287203
0.022162842 0.01803519 0.15003783 0.2530516 -0.22068031 -0.53069013 -1.6416517 -0.036112122
